____________________________________________________________________________________________________
Layer (type)                     Output Shape          Param #     Connected to                     
====================================================================================================
dense_1 (Dense)                  (None, 512)           461312      dense_input_1[0][0]              
____________________________________________________________________________________________________
leakyrelu_1 (LeakyReLU)          (None, 512)           0           dense_1[0][0]                    
____________________________________________________________________________________________________
dropout_1 (Dropout)              (None, 512)           0           leakyrelu_1[0][0]                
____________________________________________________________________________________________________
maxoutdense_1 (MaxoutDense)      (None, 512)           1050624     dropout_1[0][0]                  
____________________________________________________________________________________________________
leakyrelu_2 (LeakyReLU)          (None, 512)           0           maxoutdense_1[0][0]              
____________________________________________________________________________________________________
dropout_2 (Dropout)              (None, 512)           0           leakyrelu_2[0][0]                
____________________________________________________________________________________________________
maxoutdense_2 (MaxoutDense)      (None, 512)           1050624     dropout_2[0][0]                  
____________________________________________________________________________________________________
leakyrelu_3 (LeakyReLU)          (None, 512)           0           maxoutdense_2[0][0]              
____________________________________________________________________________________________________
dropout_3 (Dropout)              (None, 512)           0           leakyrelu_3[0][0]                
____________________________________________________________________________________________________
maxoutdense_3 (MaxoutDense)      (None, 512)           1050624     dropout_3[0][0]                  
____________________________________________________________________________________________________
leakyrelu_4 (LeakyReLU)          (None, 512)           0           maxoutdense_3[0][0]              
____________________________________________________________________________________________________
dropout_4 (Dropout)              (None, 512)           0           leakyrelu_4[0][0]                
____________________________________________________________________________________________________
maxoutdense_4 (MaxoutDense)      (None, 512)           1050624     dropout_4[0][0]                  
____________________________________________________________________________________________________
leakyrelu_5 (LeakyReLU)          (None, 512)           0           maxoutdense_4[0][0]              
____________________________________________________________________________________________________
dropout_5 (Dropout)              (None, 512)           0           leakyrelu_5[0][0]                
____________________________________________________________________________________________________
dense_2 (Dense)                  (None, 117)           60021       dropout_5[0][0]                  
____________________________________________________________________________________________________
activation_1 (Activation)        (None, 117)           0           dense_2[0][0]                    
====================================================================================================
Total params: 4,723,829
Trainable params: 4,723,829
Non-trainable params: 0
____________________________________________________________________________________________________
Signature: classification_signature {
  input {
    tensor_name: "dense_input_1:0"
…
